model/grade.tflite (tflite, 2476 bytes, 2 tensors)

sequential/dense/MatMul f4 [64, 3]
-0.004543841 0.12692407 0.046734214 0.06066379 -0.12963322 0.13299832 0.024733454 -0.033623546
-0.23648041 -0.045503974 -0.27696657 -0.10171917 -0.14970702 -0.28891534 0.2824567 -0.1542398
0.1890896 0.2110374 0.26252806 0.20991594 0.21573663 0.26069987 0.073734015 -0.17978731
0.19557914 -0.0781071 -0.08438589 -0.008220375 0.24598408 0.24066025 -0.050599888 -0.085286155
0.25336993 0.1394006 -0.027933449 0.11029634 -0.033003896 0.2062757 -0.23811784 0.25348717
0.22015333 -0.06140466 0.03258145 -0.14619116 0.1725887 0.02083993 -0.18154547 0.22824591
0.13659409 -0.04096678 -0.15454195 0.07907 0.2777362 0.02630344 -0.18619125 0.04486662
0.07737708 0.088829845 0.00928095 0.279737 -0.038270056 0.008399248 0.13274232 0.15233326
-0.027219474 -0.12106775 -0.09869461 0.116530746 -0.06404559 0.05371812 -0.0832596 -0.007964939
-0.28262642 0.15589935 -0.016018152 0.13201088 0.14822772 -0.21433973 -0.09611219 -0.04791087
0.28778607 -0.18831077 -0.082854986 -0.15740941 0.060573548 0.008872837 -0.14814645 -0.17574684
0.24108654 0.2811942 0.20410657 0.1974991 0.083613545 0.25505072 -0.08587669 0.19258991
0.024692059 0.22764957 0.0682506 0.26490587 0.00082314014 0.22897446 -0.15531223 -0.24675415
-0.2883659 -0.20145082 0.27822417 0.065669894 -0.13373655 -0.019011945 0.17734054 0.29608142
0.1006583 0.204045 0.2897514 -0.29270175 -0.1472514 0.09267026 0.1868771 -0.2585779
0.2759456 0.23933214 -0.06022644 -0.11438991 -0.06629075 0.11658734 -0.12370153 -0.013007551
0.18620944 0.0460231 -0.08665238 0.055356532 -0.19348916 -0.2716657 -0.056558535 -0.2880604
-0.2782631 0.2442162 -0.21382153 -0.20661645 0.22664678 -0.11051631 0.020486206 0.2462393
0.034629345 -0.20979118 -0.15366103 -0.07343741 0.25281364 0.036281228 0.04071927 -0.07074797
-0.094019786 0.24927938 0.05489558 -0.12705229 -0.21550262 0.014147133 -0.12788798 0.1048969
-0.21703267 -0.08060248 0.1873298 0.15202403 -0.2136254 -0.17035411 0.009063125 0.005893737
-0.03602782 0.26729608 -0.18770745 0.08599648 0.023085535 0.0146873 0.15414378 0.24547827
-0.057322234 -0.26018652 0.29313272 -0.24751844 0.2387889 -0.20665726 -0.008216947 -0.04282087
0.2907738 -0.1917854 -0.08371864 0.22560227 -0.13163808 0.021033227 0.045603067 0.2981329
00000000: 80e4 94bb 62f8 013e 606c 3f3d 987a 783d
00000010: 92be 04be b630 083e d09d ca3c d8b8 09bd
00000020: ec27 72be 6062 3abd 90ce 8dbe 2452 d0bd
00000030: cc4c 19be b6ec 93be 2a9e 903e 0af1 1dbe
00000040: b4a0 413e 301a 583e 146a 863e 34f4 563e
00000050: 10ea 5c3e 747a 853e dc01 973d 2a1a 38be
00000060: e645 483e 9ef6 9fbd 82d2 acbd c0ae 06bc
00000070: 40e3 7b3e a46f 763e d441 4fbd 82aa aebd
00000080: b4b9 813e 08bf 0e3e b0d4 e4bc 0ce3 e13d
00000090: 182f 07bd f039 533e 2ad5 73be 12c9 813e
000000a0: e06f 613e 7483 7bbd 2074 053d 23b3 15be
000000b0: 18bb 303e 80b8 aa3c 0ee7 39be 4cb9 693e
000000c0: 52df 0b3e c8cc 27bd 3f40 1ebe 74ef a13d
000000d0: 7033 8e3e 507a d73c eba8 3ebe 10c6 373d
000000e0: e077 9e3d 6cec b53d 200f 183c b039 8f3e
000000f0: 10c1 1cbd 009d 093c 9aed 073e 40fd 1b3e
00000100: 60fb debc 5ef2 f7bd 6620 cabd aca7 ee3d
00000110: 562a 83bd 8807 5c3d 0284 aabd 607f 02bc
00000120: 69b4 90be 14a4 1f3e 8038 83bc dc2d 073e
00000130: 02c9 173e e07b 5bbe 78d6 c4bd 303e 44bd
00000140: b258 933e 8ad4 40be e0af a9bd ef2f 21be
00000150: f81b 783d 605f 113c b4b3 17be fbf6 33be
00000160: 64df 763e b0f8 8f3e 5001 513e 343d 4a3e
00000170: 943d ab3d 0296 823e 1ee0 afbd 4a36 453e
00000180: 0047 ca3c f81c 693e f8c6 8b3d bea1 873e
00000190: 00c8 573a 4878 6a3e 2b0a 1fbe 1fad 7cbe
000001a0: b2a4 93be 2049 4ebe 6673 8e3e f07d 863d
000001b0: 3cf2 08be f0be 9bbc c298 353e fc97 973e
000001c0: f025 ce3d 2cf1 503e 4c5a 943e 01dd 95be
000001d0: 12c9 16be e8c9 bd3d b65c 3f3e 5364 84be
000001e0: be48 8d3e 7c13 753e 00b0 76bd 4245 eabd
000001f0: 72c3 87bd 58c5 ee3d 3a57 fdbd a01d 55bc
00000200: b0ad 3e3e b882 3c3d ce76 b1bd 88bd 623d
00000210: 0622 46be c417 8bbe eca9 67bd a77c 93be
00000220: 8078 8ebe d013 7a3e 08f4 5abe 4393 53be
00000230: 1816 683e 6056 e2bd b0d2 a73c 2826 7c3e
00000240: 80d7 0d3d 80d3 56be 5159 1dbe 5a66 96bd
00000250: ca70 813e a09b 143d 40c9 263d 50e4 90bd
00000260: 728d c0bd 1843 7f3e 30da 603d ff19 02be
00000270: b8ac 5cbe 60c9 673c 11f5 02be 30d4 d63d
00000280: d03d 5ebe ea12 a5bd 62d3 3f3e 30ac 1b3e
00000290: 9ec0 5abe 4f71 2ebe 807d 143c 4020 c13b
000002a0: e891 13bd 08db 883e 6236 40be ec1e b03d
000002b0: e01d bd3c 00a3 703c ded7 1d3e a85e 7b3e
000002c0: b8ca 6abd 2b37 85be 7e15 963e 7975 7dbe
000002d0: 1485 743e f69d 53be 60a0 06bc f064 2fbd
000002e0: 4ee0 943e 6463 44be ae74 abbd 4804 673e
000002f0: 22cc 06be e04d ac3c 48ca 3a3d e0a4 983e

sequential/dense_1/MatMul f4 [1, 64]
-1.0509804e-32 1.3598457e-32 -3.9353567e-32 -3.7607203e-32 -4.2590176e-32 1.7844035e-32 -3.032977e-32 -3.5260325e-32
-1.333543e-32 3.2417777e-32 4.184835e-32 6.1119946e-33 5.144713e-32 1.5549911e-32 4.3009193e-33 3.033674e-32
2.2542183e-32 -4.6539737e-32 8.223775e-33 2.0030444e-32 2.716055e-32 -4.5840977e-32 1.8696717e-33 2.7384474e-33
-2.7067989e-33 -3.7571042e-32 5.171613e-34 -3.614309e-32 2.9480182e-32 1.6358998e-32 4.5956892e-33 4.5351142e-32
-6.566322e-33 -5.2071614e-32 2.3718346e-33 -2.1697037e-32 1.4084709e-32 -5.5247747e-32 2.7000697e-32 2.380443e-32
6.287728e-33 -6.928679e-33 -2.3300549e-32 -2.6361948e-32 1.8337749e-32 -8.252033e-33 2.3361919e-32 -2.0974422e-32
-8.942676e-33 -3.751667e-32 1.04905215e-32 5.140423e-32 5.199075e-32 2.7214167e-32 -6.556133e-33 2.1419899e-32
-2.622165e-32 1.0740142e-32 -1.0057174e-32 -4.5440832e-32 -5.246728e-32 4.6651837e-33 -2.1431252e-32 5.6937414e-32
00000000: b447 5a8a e636 8d0a dd55 4c8b 8c44 438b
00000010: 0e24 5d8b 954d b90a 2e7b 1d8b 0315 378b
00000020: a77b 8a8a 9e52 280b 004a 590b e0e1 fd09
00000030: 7c90 850b c17a a10a 38a7 b209 7284 1d0b
00000040: 6717 ea0a eca5 718b 16cd 2a0a 0e02 d00a
00000050: 9006 0d0b 1c05 6e8b 8553 1b09 5680 6309
00000060: 3fdf 6089 7b14 438b 38db 2b08 68aa 3b8b
00000070: e211 190b ade1 a90a c0e5 be09 027a 6b0b
00000080: 8e60 088a 862f 878b 580b 4509 9e50 e18a
00000090: 9443 920a 6d6e 8f8b 1532 0c0b 0833 f70a
000000a0: 4c97 020a 2de7 0f8a 7cf7 f18a 0ae1 088b
000000b0: 196e be0a 5563 2b8a a29a f20a 94cf d98a
000000c0: 6cbb 398a 35cc 428b 2ee1 590a f973 850b
000000d0: c8f9 860b d54d 0d0b 622a 088a dc6f de0a
000000e0: 8d26 088b 6410 5f0a 1ce1 508a 3af1 6b8b
000000f0: 7d36 888b bec8 c109 0a8e de8a 67d1 930b
